traffic/algorithms/onnx/holding_pattern/scaler.onnx (onnx, 560 bytes, 2 tensors)

Mu_Mulcst f4 [30]
000000 00 00 80 3f a0 85 39 3b 0b 6e 3a 3b 3c bb 07 3b
       1.0 0.0028308406 0.0028446938 0.0020710966
000010 a2 af 01 3b 9d c3 0c 3b 87 fb 06 3b ed 33 04 3b
       0.0019788523 0.00214789 0.00205967 0.0020172552
000020 ee 87 ff 3a ab 4b e3 3a c4 1c d0 3a e4 7d bb 3a
       0.0019495466 0.0017341276 0.0015877713 0.0014304486
000030 7c 15 aa 3a 0a a1 a1 3a 2c f6 95 3a 0d 8c 93 3a
       0.0012976374 0.0012331319 0.0011441163 0.0011256948
000040 62 eb 90 3a ef 59 8b 3a 7f 47 8a 3a 6a 20 87 3a
       0.0011056478 0.0010631661 0.0010549872 0.0010309343
000050 64 6d 83 3a c8 4b 74 3a cb 9f 72 3a 7a 49 6e 3a
       0.0010027108 0.00093191536 0.00092553784 0.00090899284
000060 9b d7 64 3a b8 a6 5b 3a a3 09 53 3a 5a 68 4c 3a
       0.00087296375 0.000837903 0.0008050447 0.0007797532
000070 71 6f 48 3a c1 ba 43 3a
       0.00076460006 0.0007466488

Ad_Addcst f4 [30]
000000 00 00 00 00 d2 22 fe 3e 67 ba 21 3f 65 08 22 3f
       0.0 0.4963594 0.6317505 0.6329406
000010 f0 24 1b 3f ec 7d 1d 3f 84 ee 13 3f 06 88 03 3f
       0.6060324 0.61520267 0.5778582 0.5137943
000020 76 4a 04 3f 32 55 ff 3e 5a 0f 07 3f 0b d6 08 3f
       0.5167612 0.49869686 0.527578 0.53451604
000030 20 02 0b 3f 1a 0d 0f 3f e9 cb 0e 3f 81 9f 0d 3f
       0.5430012 0.55879366 0.5577989 0.5532151
000040 5d 3f 0b 3f b5 e5 05 3f be de 04 3f 84 d6 01 3f
       0.5439356 0.5230363 0.5190238 0.5071795
000050 95 7b fe 3e 2f 9a 02 3f 60 b5 01 3f 48 54 04 3f
       0.4970366 0.51016515 0.5066738 0.51691103
000060 0f 61 07 3f 6a b3 06 3f 3d d1 06 3f 8d 65 06 3f
       0.52882475 0.52617514 0.5266302 0.52498704
000070 da d4 04 3f 6e b2 03 3f
       0.51887286 0.5144414
