src/traffic/algorithms/onnx/holding_pattern/classifier.onnx (onnx, 3898 bytes, 9 tensors)

classifier.0.weight f4 [8, 30]
000000 d0 3c 02 80 9b dc 28 3f 35 a9 4b 3f 62 36 d1 3e
       -2.05486e-40 0.6596162 0.79555064 0.40861803
000010 56 d7 bd 3e f3 0c 24 3f eb 31 58 3f ea e6 6f 3f
       0.3707835 0.6408226 0.8445117 0.9371172
000020 48 56 48 3f 91 d7 0e 3f 98 41 67 3e 18 c2 27 3e
       0.78256655 0.5579768 0.22583616 0.16382635
000030 87 1c 7d 3d ba eb 22 3e ae 02 87 bd b9 a5 75 be
       0.061794784 0.15910235 -0.06592308 -0.23989
000040 a5 68 0e bf 3a 63 29 bf 42 3e 28 bf d6 f8 37 bf
       -0.55628425 -0.6616703 -0.6572 -0.7186407
000050 d3 21 37 bf cb 06 05 bf 20 bf 09 bf 40 02 70 be
       -0.71535987 -0.5196349 -0.5380726 -0.23438358
000060 15 d9 11 be 39 ed 19 be 10 fd 8c be c2 8c e2 bd
       -0.14242966 -0.150319 -0.2753682 -0.11062004
000070 04 d5 bf 3e 6d 6c a3 3f 4c 10 11 80 a4 c9 0e be
       0.37467206 1.2767464 -1.56705e-39 -0.13944107
000080 76 f5 c6 bd 86 19 84 3e 0e d3 83 3e 8a 7f 82 3e
       -0.09714787 0.25800723 0.2574696 0.2548793
000090 ca 5d 6d 3d 33 67 f8 3c b2 98 4a 3c 52 f3 04 3e
       0.057950772 0.030322647 0.012365507 0.12983444
0000a0 99 37 75 3b e2 2d 39 be e6 ef d2 be b0 9b 0c bf
       0.0037417172 -0.18083909 -0.41198653 -0.5492506
0000b0 46 d0 07 bf 64 69 22 bf a8 e1 fd be 03 8b 2c bf
       -0.53052175 -0.63442063 -0.49586225 -0.67399615
0000c0 bd 1a 20 bf 39 c0 0c bf cb 34 5a be 99 db 31 be
       -0.625408 -0.5498081 -0.21309201 -0.17368926
0000d0 4e f3 96 bd 2f 89 21 bd 73 d8 42 3e 43 7c a1 3e
       -0.073706254 -0.03943747 0.19027881 0.31540117
0000e0 06 8d 59 3e dd 19 9d 3d 7b 1d ab bd 70 ae 7f bf
       0.21245202 0.07670949 -0.08355232 -0.99875546
0000f0 7c 32 09 00 af b7 75 be b6 bd 18 be 9e 7a 0c 3d
       8.4463e-40 -0.23995851 -0.14916119 0.034296624
000100 62 72 b8 bc 4b a1 5f 3d 13 7c cc 3d 2b bd 52 be
       -0.02251548 0.05459718 0.09984603 -0.20579974
000110 4b ba 04 be a2 c7 79 be d0 21 3f be d6 47 48 bd
       -0.1296169 -0.2439256 -0.18665242 -0.048896633
000120 a1 4a be 3c d5 b5 d9 bd 36 7e 1b 3d 3b b1 9e 3c
       0.023228945 -0.10630385 0.03796216 0.01937162
000130 b5 d6 7e 3e 57 d9 70 3e 53 ce 6b 3e 0c d2 4f 3e
       0.24886592 0.23520409 0.23027925 0.2029497
000140 f9 bb f4 3d c8 20 01 3e 7b b0 e3 3d f2 91 8b be
       0.119499154 0.12610161 0.11117645 -0.27259785
000150 a1 07 11 3d 71 0f cd 3d f3 9c 01 3e 30 1d 97 bd
       0.035407666 0.10012711 0.12657528 -0.07378614
000160 d8 a5 18 bf a6 e4 04 c0 b9 1e 0e 80 fa 34 87 bd
       -0.5962806 -2.0764556 -1.296718e-39 -0.06601901
000170 df b9 24 bd fb 0f 92 be cc ad 90 be fe 07 bc be
       -0.040216323 -0.28527817 -0.28257596 -0.36724848
000180 50 09 36 be 49 95 bf be 04 7e 98 be 57 41 e9 be
       -0.1777699 -0.37418583 -0.29783642 -0.45557663
000190 f1 ca cd bd 9e 23 66 bc 48 5a db bd 3d a8 67 be
       -0.100484736 -0.014046578 -0.10710579 -0.22622772
0001a0 2a 10 10 be 38 e5 33 bd 5a 19 43 3e 1c 38 79 3e
       -0.14068666 -0.043919772 0.1905264 0.2433781
0001b0 92 18 8e 3e a8 96 cf 3e fa 56 08 3f a7 8f b8 3e
       0.2775312 0.4054463 0.53257716 0.36047098
0001c0 47 b3 6d 3e 74 41 db 3d 82 70 33 be 9b 51 7c be
       0.2321292 0.107058436 -0.17523387 -0.24640505
0001d0 70 4e 8d be 7e 47 95 be 27 ac b6 3e cb e6 bf 3f
       -0.27598906 -0.29156107 0.35678217 1.4992307
0001e0 c9 60 09 00 37 a1 c0 be 63 54 ac be d4 a6 43 be
       8.6124e-40 -0.37622997 -0.33658132 -0.19106609
0001f0 14 8e 83 bd 7d ab 8f 3d e8 fd 1d be c6 99 a5 be
       -0.064235836 0.07015131 -0.15428889 -0.32343882
000200 fb 50 1d bf 2e 17 37 bf 01 d7 18 bf a4 a0 34 bf
       -0.6145169 -0.71519744 -0.5970307 -0.7055762
000210 65 84 6a bf e0 ad 2f bf 61 99 54 bf 0a d4 0d bf
       -0.9160827 -0.6862469 -0.8304654 -0.5540167
000220 41 18 de be 8d f8 3c be e8 d5 10 be b0 93 10 3e
       -0.4337788 -0.1845419 -0.14144099 0.14118838
000230 a2 42 2e 3e 11 67 2f 3e 10 b4 09 3f dd a6 23 3f
       0.17017606 0.1712916 0.5379038 0.6392649
000240 21 09 39 3f 9f 1b 2a 3f c2 e8 ca 3e e7 91 89 3e
       0.72279555 0.66448396 0.39630705 0.26869127
000250 7b 5f c4 3e 99 a9 13 3f 74 0a 10 00 b3 5e 20 bd
       0.38354096 0.5768066 1.473118e-39 -0.039152812
000260 8a 2b 6d 3d a7 04 0d 3d e3 98 05 3e 04 cb 22 be
       0.05790285 0.034428265 0.13046603 -0.15897757
000270 be f3 95 be 03 c7 63 be 94 69 28 be 9b 58 c6 bd
       -0.29287523 -0.22243886 -0.16446525 -0.09684869
000280 11 a7 ef bd ba 3e db bd 09 db 93 be f9 6f 60 be
       -0.11701787 -0.107053235 -0.28878048 -0.21917714
000290 97 5e ac be 38 df bd bd 86 3f cb bd 2a 0c 33 3e
       -0.33665916 -0.09271091 -0.099242255 0.17485109
0002a0 e1 99 24 3e ef d9 a2 3e a7 6a 43 3e 51 10 7a 3e
       0.16074325 0.31806895 0.19083653 0.24420287
0002b0 2d 8f 2a 3f c4 d1 21 3f f7 aa b9 3e e5 2e b9 3e
       0.6662472 0.632107 0.36263248 0.3616859
0002c0 0d 00 a6 3e b3 9d 0a 3f ec f5 56 3f f3 c9 82 3f
       0.32421914 0.5414688 0.83968997 1.021788
0002d0 05 63 04 00 dc ce 35 3c d7 f6 4a 3e ea 98 b2 3d
       4.02863e-40 0.011096682 0.19820724 0.08720572
0002e0 b5 d1 87 b9 04 4b e7 bb c5 e3 de bd 41 53 70 3e
       -0.0002590545 -0.007058503 -0.10883287 0.23469259
0002f0 e7 96 43 3e df 96 0c 3f 57 a4 35 3f 15 91 32 3f
       0.19100533 0.5491771 0.7095389 0.6975263
000300 d4 12 1d 3f e2 4b 10 3f 63 33 c2 3e 28 8b ac 3e
       0.61356854 0.5636579 0.3792983 0.33699918
000310 06 d1 a4 3d 0a 15 39 be 87 43 89 be 6d 64 fe be
       0.080476806 -0.18074432 -0.26809332 -0.49685994
000320 7a 90 90 be b8 b7 b2 be ce 9e d8 be 8b e4 f5 be
       -0.28235227 -0.3490579 -0.42308658 -0.48025927
000330 65 72 ca be e5 87 96 bd 07 c8 3c 3c 2c b9 38 be
       -0.395404 -0.073501386 0.0115223 -0.18039387
000340 d7 64 c6 be 0b 6f d2 bf 23 00 16 00 58 a4 72 be
       -0.3874881 -1.6440138 2.02043e-39 -0.23695505
000350 99 e6 87 be ce e3 9d be 86 19 f1 be 06 5e aa be
       -0.2654312 -0.30837864 -0.47089785 -0.3327486
000360 86 99 d3 bd c6 61 a5 be 36 2d b9 be 68 9f 0a be
       -0.10332017 -0.32301158 -0.36167306 -0.13537371
000370 39 c9 63 bc 3c 92 72 3d 4b ca 17 3d 20 1f 17 3e
       -0.013902956 0.05922149 0.037058156 0.14757967
000380 9b 81 0f 3e e6 47 be 3e 82 68 38 3f ba 6c 4d 3f
       0.14014284 0.3716423 0.72034466 0.8024403
000390 2e 5e 64 3f e4 0b 3e 3f 70 14 07 3f 78 46 e3 3e
       0.89206207 0.74236894 0.5276556 0.443897
0003a0 6b fb a8 3d aa 02 f9 bd 9c cb a2 be d6 5d a3 be
       0.08251079 -0.12158711 -0.31795967 -0.3190753
0003b0 9f ce 46 be 29 8e 3c be 24 42 15 bf 6b 5e 95 bf
       -0.19414757 -0.18413605 -0.5830405 -1.1669439

classifier.0.bias f4 [8]
000000 15 ad fd 3c 48 6d 3c 3f d7 cb 16 3f d8 f4 37 bf
       0.030966321 0.7360425 0.58904785 -0.71857977
000010 83 33 00 be 44 cd fb be 98 d2 3c 3e dc 45 e8 be
       -0.1251965 -0.49180043 0.1843971 -0.45365798

classifier.2.weight f4 [10, 1, 3]
000000 d9 05 29 bf 74 01 61 bf 2c a9 4a 3e 26 17 86 bf
       -0.6602455 -0.8789284 0.19791096 -1.0475814
000010 26 f2 e1 be 44 fe c8 3d e2 b6 b5 3e f2 c9 5c 3e
       -0.44130057 0.09814122 0.3549109 0.21561411
000020 36 b4 61 3f 9e fa 2d bf f5 39 c4 3e 93 19 55 3f
       0.88165605 -0.67960536 0.38325468 0.8324215
000030 43 25 68 3f e1 4d b5 bd 5c 0c 50 bf 17 00 cd be
       0.90681857 -0.08852745 -0.8126886 -0.4003913
000040 84 e9 44 bf c3 ae 6b bf b7 cd 1b bf 62 54 0f 3f
       -0.76918817 -0.9206354 -0.6086077 0.5598813
000050 54 96 93 3e 05 d6 04 bf a0 63 5a 3f 4d f0 52 bf
       0.2882563 -0.5188907 0.85308266 -0.8239792
000060 80 1b 45 3e c9 f3 d3 be f3 12 70 bf d0 c7 34 bf
       0.19248772 -0.4139693 -0.93778914 -0.7061739
000070 6f 52 03 be de a0 a9 3f
       -0.12824415 1.3252218

classifier.2.bias f4 [10]
000000 b3 b4 43 bf 54 cb 5d bf 87 2a c8 bf ce 57 13 3f
       -0.764476 -0.8663838 -1.5637978 0.57555854
000010 f7 73 23 3f dc ed 0e 3f 27 04 9a bf 50 49 5f bf
       0.63848823 0.55831695 -1.2032517 -0.8722124
000020 0f 26 6e bf 52 c3 33 bf
       -0.9302682 -0.7021991

classifier.6.weight f4 [8, 30]
000000 88 6f e1 bf c3 8d b1 bc 28 51 f4 be 8a f2 a6 bf
       -1.7612162 -0.021674043 -0.47718167 -1.3042767
000010 55 b5 2d 3d bf af 31 bf 5e df 0b 80 b8 f6 08 80
       0.04240926 -0.6940879 -1.09032e-39 -8.2319e-40
000020 c9 f1 09 80 d8 2a 15 bf 9e 41 7b 3e 59 99 03 3f
       -9.13256e-40 -0.582685 0.2453675 0.51405865
000030 7f 86 5c be 7f bd 4c 3e d7 b4 79 be 52 77 bb 3e
       -0.21535681 0.19994162 -0.24385391 0.36614472
000040 ac cb 84 3e 91 be c4 be 0a 26 13 80 ad d2 09 00
       0.2593664 -0.3842664 -1.75852e-39 9.02096e-40
000050 b7 8c 00 c0 47 0b c2 3f f8 51 d0 3f 37 d7 8a be
       -2.0085886 1.5159692 1.6275015 -0.2711732
000060 c5 d6 14 c0 c6 82 68 3e a1 01 e3 3e 7f 64 09 80
       -2.3256085 0.22706136 0.4433718 -8.6257e-40
000070 e3 d4 6b bd 51 2e b2 3f 85 57 2e 34 c7 a2 bb b3
       -0.05757607 1.3920385 1.6236852e-07 -8.737475e-08
000080 d7 17 0a 80 ff dd 3f 35 5a 2a ab a7 c6 1b 07 80
       -9.26907e-40 7.147609e-07 -4.750795e-15 -6.52812e-40
000090 a4 15 0e 80 b9 42 00 80 f7 3c 0b 00 cf 34 c7 af
       -1.29346e-39 -2.3936e-41 1.03206e-39 -3.6235412e-10
0000a0 d6 43 f5 b4 00 4b 44 b6 c2 77 fa b7 9d 5c ab ad
       -4.5684163e-07 -2.9249932e-06 -2.9858089e-05 -1.9481578e-11
0000b0 fa ae 10 b8 70 2d ef b7 03 84 ed b7 92 40 52 a4
       -3.4495235e-05 -2.8512179e-05 -2.8314074e-05 -4.5591184e-17
0000c0 e5 db 0c 80 6b 96 09 00 45 9b 80 ad 90 6d 04 80
       -1.180909e-39 8.80479e-40 -1.4620869e-11 -4.06646e-40
0000d0 dc 04 29 ac 19 8b a7 35 8e 85 96 31 32 70 16 a7
       -2.4019042e-12 1.2482952e-06 4.380758e-09 -2.0877503e-15
0000e0 aa 37 86 18 72 cc 07 2b cd 73 9a b6 63 08 01 80
       3.4694394e-24 4.824536e-13 -4.6030386e-06 -9.4844e-41
0000f0 f8 49 13 37 10 e8 da b9 9b d0 ab a2 3f b1 9c 37
       8.779105e-06 -0.000417531 -4.6570513e-18 1.8679186e-05
000100 6c 53 a1 b7 6f 7c d1 b5 ce 61 0e 80 2a 36 75 1b
       -1.9231542e-05 -1.5607928e-06 -1.320783e-39 2.0283426e-22
000110 cc 73 01 00 fc 24 9b b5 d2 6c e1 b8 ae d6 94 ba
       1.33376e-40 -1.1559164e-06 -0.000107491054 -0.0011355483
000120 a8 3d e2 ba 73 80 bd b9 d4 77 41 ba 12 f8 6d ba
       -0.0017260807 -0.0003614459 -0.00073802215 -0.0009077798
000130 77 9e 18 bb d9 b7 d9 b6 15 88 09 00 01 2f 06 80
       -0.0023287812 -6.4885066e-06 8.75337e-40 -5.67875e-40
000140 d1 eb ac b5 5f f5 ba 94 14 46 3d 32 79 1b 9b b8
       -1.288363e-06 -1.8877982e-26 1.1017182e-08 -7.396093e-05
000150 8b 6d db b5 1b d9 1c b8 cb 2f 4e a9 8d bb e6 31
       -1.6348653e-06 -3.7395494e-05 -4.5782642e-14 6.715203e-09
000160 ec 77 88 b9 9d 96 e8 b6 06 5f 84 bf 55 cb 95 3e
       -0.0002602929 -6.9316725e-06 -1.0341499 0.29256693
000170 01 74 48 3f bb 3d ba be 0d 85 9a 3e e2 fa 0b c0
       0.7830201 -0.36375222 0.30179635 -2.1871877
000180 15 d9 06 80 80 35 e8 3e 47 3d 0c 80 3a e4 4d be
       -6.28887e-40 0.45353317 -1.124008e-39 -0.20106593
000190 35 b2 d8 3d 9c 59 c4 3e 86 e3 c3 3e ba 56 34 3f
       0.10580865 0.38349617 0.38259524 0.70444834
0001a0 47 5a 68 3e 68 07 0f 3f 7b fb 81 3e 85 ce 1d 3f
       0.22690688 0.55870676 0.25387177 0.6164325
0001b0 d7 94 3a bd 48 5d 13 80 11 de 73 3e 2a 42 9d be
       -0.0455521 -1.778337e-39 0.2381518 -0.30714542
0001c0 ce 8a 43 bf e0 c5 9b be 6b f4 72 be 8a 83 81 be
       -0.76383674 -0.30424404 -0.2372605 -0.2529567
0001d0 38 16 36 be 8d dd 18 bf 2a 47 c7 bc 35 c4 5f bf
       -0.17781913 -0.5971306 -0.024325926 -0.87408763
0001e0 2d 9b 1a a4 fe 2b 4a a7 86 4c 04 80 02 7c 10 a9
       -3.3524866e-17 -2.805698e-15 -3.94793e-40 -3.2081983e-14
0001f0 c5 8f b3 90 ac 8a 06 00 77 bc 15 00 42 d5 08 00
       -7.0824563e-29 6.00759e-40 1.996154e-39 8.11186e-40
000200 f6 21 0d 00 b8 01 04 a1 f7 fd 15 ab 64 c2 08 ae
       1.206044e-39 -4.4725614e-19 -5.328788e-13 -3.1095473e-11
000210 0e 48 d7 b1 7e 35 f4 a4 92 11 46 b2 c4 99 1d b1
       -6.265515e-09 -1.0590875e-16 -1.1529112e-08 -2.2933913e-09
000220 71 70 30 b2 43 43 50 95 ba f5 0c 00 34 6f 0d 80
       -1.02701145e-08 -4.2058326e-26 1.190176e-39 -1.233754e-39
000230 9d d7 4b 87 2a ff 03 00 f3 6a 00 00 19 b5 06 ac
       -1.5335386e-34 3.67042e-40 3.8366e-41 -1.9143075e-12
000240 6c 97 35 9b 39 15 3c 8c f7 dd 02 00 71 30 02 80
       -1.5020896e-22 -1.448938e-31 2.63297e-40 -2.01048e-40
000250 1b 83 23 af bc e2 06 80 40 f7 3d bf 39 61 31 3e
       -1.4871342e-10 -6.3235e-40 -0.742054 0.17322244
000260 e4 a2 8f 3f b0 38 2a be a9 15 e9 3d 91 ee 1e c0
       1.1221585 -0.16623187 0.113810845 -2.483311
000270 22 46 0e 80 6a 16 f8 bf 24 b6 00 80 2d f5 8a bf
       -1.310856e-39 -1.938184 -6.534e-41 -1.0856072
000280 99 f2 ea 3d d6 85 24 3f 32 b5 01 3f 7d 41 e0 3e
       0.11472053 0.6426672 0.5066711 0.43799964
000290 4f 80 89 3e 77 14 86 3e 5a 4f dc 3e 31 3f 0b 3e
       0.26855704 0.26187488 0.4302929 0.13598324
0002a0 bc 26 f6 bd ef 1b 11 00 b0 11 05 be 33 90 83 bf
       -0.12019107 1.571224e-39 -0.12995028 -1.0278381
0002b0 38 0a 9e be b0 98 c7 bb ed 88 c2 3d 93 99 31 bf
       -0.3086717 -0.0060912 0.09498773 -0.6937496
0002c0 c3 fd 93 bf d7 f7 39 bf 00 5a 90 bd 1a a8 71 bf
       -1.1561817 -0.726438 -0.07048416 -0.9439713
0002d0 92 27 66 3f 42 16 72 3d 14 7b 5d bb e1 a4 31 3f
       0.8990413 0.059103258 -0.0033795284 0.6939221
0002e0 1b e2 f4 bd 2a ab 4a 3c c2 27 0a 80 70 1f 3d c0
       -0.11957189 0.01236991 -9.32617e-40 -2.9550438
0002f0 b0 03 10 80 a5 b5 be 3e 08 3b 88 bd 3d 27 b9 be
       -1.470691e-39 0.3724796 -0.06651884 -0.3616275
000300 15 80 68 3c d2 9e d3 be 00 7f 0a bd 8f e2 3c bf
       0.014190693 -0.41332108 -0.033812523 -0.737832
000310 2b d7 69 be 6e 24 df be f1 30 42 3d 39 dc 0d 80
       -0.22835986 -0.4358248 0.047409955 -1.272862e-39
000320 0b 88 ca 3e 11 bc c8 3f 77 0a ff 3e 84 e2 ab 3e
       0.39556918 1.5682393 0.49812672 0.33571255
000330 b8 29 65 3e 26 69 ec 3e c0 2e 87 3d dc c3 f9 3e
       0.22379196 0.46173972 0.06600714 0.4878224
000340 5a 75 2f 3e c8 6b ab bf 27 4f 12 bd 84 38 91 bb
       0.1713461 -1.3392267 -0.035720017 -0.004431786
000350 10 fe d5 3d 58 df ed 3c b5 36 0f bc 3e 10 36 3e
       0.10448849 0.029037163 -0.0087410705 0.17779633
000360 8a e7 0c 80 b9 84 ef 3e 8a c2 00 80 5f 67 68 3f
       -1.185087e-39 0.46780947 -6.9787e-41 0.9078273
000370 04 9b cf bc 7d a3 00 3b a9 b2 ad be be 40 6b 3f
       -0.025342472 0.0019628697 -0.3392537 0.91895664
000380 be e9 e1 bd 9e f5 ed 3e 9c 47 d7 3c a7 9b 57 3e
       -0.11030911 0.46476454 0.026279263 0.2105547
000390 30 5c 37 3e b6 32 00 80 d7 b2 b6 bd dc 22 0a c0
       0.1790626 -1.8192e-41 -0.0892083 -2.1583776
0003a0 50 b4 61 bf 12 5b 52 ba 8b fc 83 be fd 7e b0 3e
       -0.8816576 -0.0008024435 -0.25778612 0.34471884
0003b0 99 a5 d5 bf 5b eb dd be c8 10 fe bd f3 2d 49 3f
       -1.6691161 -0.43343624 -0.124055445 0.7858574

classifier.6.bias f4 [8]
000000 75 a7 e4 3e 63 e9 d4 ab d9 a2 80 b7 1e 53 ec 3e
       0.4465901 -1.5128284e-12 -1.5334621e-05 0.46157163
000010 39 c9 25 9a 1d 9e 1f 3f 65 32 2e bf 21 2a 82 3e
       -3.4283747e-23 0.62350637 -0.68045646 0.25422767

classifier.8.weight f4 [4, 8]
000000 2e c7 44 3f a8 09 1f 38 ec 3b 43 3c 4f 57 68 be
       0.76866424 3.7917547e-05 0.011916142 -0.22689556
000010 4f 0e 02 b9 0a 4f f4 bf 5c e2 7c 3e 34 1f 79 bb
       -0.00012403096 -1.9086621 0.24695724 -0.0038012983
000020 3f aa e9 bf 73 d5 f2 ba 60 e2 4e bc 01 6a 83 3f
       -1.825508 -0.0018526748 -0.012627214 1.0266725
000030 6b 9d e7 b9 05 bc 15 3f e9 36 b0 bf d5 24 b2 3d
       -0.0004417704 0.5849002 -1.3766757 0.086984314
000040 65 f2 8d bf 43 54 96 38 89 1f f3 bc 74 bd aa 3e
       -1.1089598 7.168252e-05 -0.029678123 0.33347666
000050 a0 4b 25 b9 0b 0c 6a be c2 c9 ef be c9 7b 33 3f
       -0.00015763799 -0.22856157 -0.46833616 0.70110756
000060 25 27 96 3f 87 24 54 ba fc c9 6e 3c 60 b1 66 3e
       1.1730696 -0.0008092601 0.014574524 0.225286
000070 4a 06 ed 39 e2 43 66 3f 8b 40 e5 3e 6d 25 bf bf
       0.00045208848 0.8994733 0.44775805 -1.4933296

classifier.8.bias f4 [4]
000000 95 aa 1e be fb fe da 3d c6 60 33 be 71 ab 9d be
       -0.1549476 0.10693165 -0.17517385 -0.30794862

classifier.10.weight f4 [1, 4]
000000 26 ef f9 bf ba 91 c5 bf a7 55 d2 bf 7f f0 c7 3f
       -1.9526107 -1.5435097 -1.6432389 1.5620269
